…
2020-05-29 17:01:07.710034: I tensorflow/stream_executor/platform/default/dso_loader.cc:42] Successfully opened dynamic library libcublas.so.10.0
2020-05-29 17:01:07.968112: I tensorflow/stream_executor/platform/default/dso_loader.cc:42] Successfully opened dynamic library libcudnn.so.7
siglen: 2000
channels: 1
n_traj: 50000
first_validation: 40000
(40000, 2000, 1)
31.27666666957781 -31.28223237314301
1.0 -1.0
Model: "sequential"
_________________________________________________________________
Layer (type)                 Output Shape              Param #   
=================================================================
dense (Dense)                (None, 6400)              646400    
_________________________________________________________________
re_lu (ReLU)                 (None, 6400)              0         
_________________________________________________________________
reshape (Reshape)            (None, 25, 1, 256)        0         
_________________________________________________________________
batch_normalization (BatchNo (None, 25, 1, 256)        1024      
_________________________________________________________________
conv2d_transpose (Conv2DTran (None, 125, 1, 128)       655488    
_________________________________________________________________
re_lu_1 (ReLU)               (None, 125, 1, 128)       0         
_________________________________________________________________
batch_normalization_1 (Batch (None, 125, 1, 128)       512       
_________________________________________________________________
conv2d_transpose_1 (Conv2DTr (None, 250, 1, 64)        163904    
_________________________________________________________________
re_lu_2 (ReLU)               (None, 250, 1, 64)        0         
_________________________________________________________________
batch_normalization_2 (Batch (None, 250, 1, 64)        256       
_________________________________________________________________
conv2d_transpose_2 (Conv2DTr (None, 500, 1, 32)        40992     
_________________________________________________________________
re_lu_3 (ReLU)               (None, 500, 1, 32)        0         
_________________________________________________________________
batch_normalization_3 (Batch (None, 500, 1, 32)        128       
_________________________________________________________________
conv2d_transpose_3 (Conv2DTr (None, 1000, 1, 16)       10256     
_________________________________________________________________
re_lu_4 (ReLU)               (None, 1000, 1, 16)       0         
_________________________________________________________________
batch_normalization_4 (Batch (None, 1000, 1, 16)       64        
_________________________________________________________________
conv2d_transpose_4 (Conv2DTr (None, 2000, 1, 1)        321       
_________________________________________________________________
activation (Activation)      (None, 2000, 1, 1)        0         
_________________________________________________________________
reshape_1 (Reshape)          (None, 2000, 1)           0         
=================================================================
Total params: 1,519,345
Trainable params: 1,518,353
Non-trainable params: 992
_________________________________________________________________
Model: "sequential_1"
_________________________________________________________________
Layer (type)                 Output Shape              Param #   
=================================================================
conv1d (Conv1D)              (None, 1000, 16)          336       
_________________________________________________________________
re_lu_5 (ReLU)               (None, 1000, 16)          0         
_________________________________________________________________
conv1d_1 (Conv1D)            (None, 500, 32)           10272     
_________________________________________________________________
re_lu_6 (ReLU)               (None, 500, 32)           0         
_________________________________________________________________
conv1d_2 (Conv1D)            (None, 250, 64)           41024     
_________________________________________________________________
re_lu_7 (ReLU)               (None, 250, 64)           0         
_________________________________________________________________
conv1d_3 (Conv1D)            (None, 125, 128)          163968    
_________________________________________________________________
re_lu_8 (ReLU)               (None, 125, 128)          0         
_________________________________________________________________
conv1d_4 (Conv1D)            (None, 25, 256)           655616    
_________________________________________________________________
re_lu_9 (ReLU)               (None, 25, 256)           0         
_________________________________________________________________
flatten (Flatten)            (None, 6400)              0         
_________________________________________________________________
dense_1 (Dense)              (None, 1)                 6401      
=================================================================
Total params: 877,617
Trainable params: 877,617
Non-trainable params: 0
_________________________________________________________________
train for 40000 epochs

NCRITIC = 5

[… 0 [D loss:    9.9] [d_loss_test:    9.8] [G loss: … 1 [D loss:    9.5] [d_loss_test:    9.3] [G loss: … 2 [D loss:    7.2] [d_loss_test:    6.2] [G loss:   … 3 [D loss:  -0.33] [d_loss_test:   -3.5] [G loss:   … 4 [D loss:   -9.1] [d_loss_test:    -15] [G loss:   … 5 [D loss:    -11] [d_loss_test:    -14] [G loss:   … 6 [D loss:    -11] [d_loss_test:    -13] [G loss:     -7]
…
